Layer (type)                 Output Shape              Param #
=================================================================
conv2d_1 (Conv2D)            (None, 200, 200, 8)       1952
_________________________________________________________________
dropout_1 (Dropout)          (None, 200, 200, 8)       0
_________________________________________________________________
max_pooling2d_1 (MaxPooling2 (None, 66, 66, 8)         0
_________________________________________________________________
conv2d_2 (Conv2D)            (None, 66, 66, 16)        3216
_________________________________________________________________
dropout_2 (Dropout)          (None, 66, 66, 16)        0
_________________________________________________________________
max_pooling2d_2 (MaxPooling2 (None, 22, 22, 16)        0
_________________________________________________________________
conv2d_3 (Conv2D)            (None, 22, 22, 32)        4640
_________________________________________________________________
max_pooling2d_3 (MaxPooling2 (None, 5, 5, 32)          0
_________________________________________________________________
flatten_1 (Flatten)          (None, 800)               0
_________________________________________________________________
dropout_3 (Dropout)          (None, 800)               0
_________________________________________________________________
dense_1 (Dense)              (None, 128)               102528
_________________________________________________________________
dropout_4 (Dropout)          (None, 128)               0
_________________________________________________________________
dense_2 (Dense)              (None, 32)                4128
_________________________________________________________________
dropout_5 (Dropout)          (None, 32)                0
_________________________________________________________________
dense_3 (Dense)              (None, 1)                 33
=================================================================
Total params: 116,497
Trainable params: 116,497
Non-trainable params: 0
_________________________________________________________________